…
train.py:44: UserWarning: Update your `Conv2D` call to the Keras 2 API: `Conv2D(96, (3, 3), padding="same", input_shape=(32, 32, 3...)`
  model.add(Convolution2D(96, 3, 3, border_mode='same', input_shape=(IMAGE_SIZE, IMAGE_SIZE, 3)))
INFO:plaidml:Opening device "amd_radeon_hd_-_firepro_d300_compute_engine.1"
train.py:47: UserWarning: Update your `Conv2D` call to the Keras 2 API: `Conv2D(128, (3, 3))`
  model.add(Convolution2D(128, 3, 3))
_________________________________________________________________
Layer (type)                 Output Shape              Param #   
=================================================================
conv2d_1 (Conv2D)            (None, 32, 32, 96)        2688      
_________________________________________________________________
activation_1 (Activation)    (None, 32, 32, 96)        0         
_________________________________________________________________
conv2d_2 (Conv2D)            (None, 30, 30, 128)       110720    
_________________________________________________________________
activation_2 (Activation)    (None, 30, 30, 128)       0         
_________________________________________________________________
dropout_1 (Dropout)          (None, 30, 30, 128)       0         
_________________________________________________________________
flatten_1 (Flatten)          (None, 115200)            0         
_________________________________________________________________
dense_1 (Dense)              (None, 1024)              117965824 
_________________________________________________________________
activation_3 (Activation)    (None, 1024)              0         
_________________________________________________________________
dropout_2 (Dropout)          (None, 1024)              0         
_________________________________________________________________
dense_2 (Dense)              (None, 203)               208075    
_________________________________________________________________
activation_4 (Activation)    (None, 203)               0         
=================================================================
Total params: 118,287,307
Trainable params: 118,287,307
Non-trainable params: 0
_________________________________________________________________
Found 10938 images belonging to 203 classes.
Found 3552 images belonging to 203 classes.
Epoch 1/50
679/679 [==============================] - 569s - loss: 5.8918 - acc: 0.0211 - val_loss: 4.4835 - val_acc: 0.0705
…
